…
trainacc: 0.8034, testacc: 0.6988
0.750284090909 0.7265625 0.715909090909 0.75 0.47619047619 0.5 0.511627906977 0.47619047619
training accuracy: 93/128, 0.727
test accuracy: 32/64, 0.500

 transfer_vgg19_model_20181112_1451\REICST-EP36-LOSS0.7624-AUC0.5602.h5
X_trainauc: 0.9130, X_valauc: 0.5602
X_trainacc: 0.8476, X_valacc: 0.6750
trainauc: 0.8324, testauc: 0.6017
trainacc: 0.7973, testacc: 0.7012
_________________________________________________________________
Layer (type)                 Output Shape              Param #   
=================================================================
input_2 (InputLayer)         (None, 224, 224, 3)       0         
_________________________________________________________________
lambda_2 (Lambda)            (None, 224, 224, 3)       0         
_________________________________________________________________
block1_conv1 (Conv2D)        (None, 224, 224, 64)      1792      
_________________________________________________________________
block1_conv2 (Conv2D)        (None, 224, 224, 64)      36928     
_________________________________________________________________
block1_pool (MaxPooling2D)   (None, 112, 112, 64)      0         
_________________________________________________________________
block2_conv1 (Conv2D)        (None, 112, 112, 128)     73856     
_________________________________________________________________
block2_conv2 (Conv2D)        (None, 112, 112, 128)     147584    
_________________________________________________________________
block2_pool (MaxPooling2D)   (None, 56, 56, 128)       0         
_________________________________________________________________
block3_conv1 (Conv2D)        (None, 56, 56, 256)       295168    
_________________________________________________________________
block3_conv2 (Conv2D)        (None, 56, 56, 256)       590080    
_________________________________________________________________
block3_conv3 (Conv2D)        (None, 56, 56, 256)       590080    
_________________________________________________________________
block3_conv4 (Conv2D)        (None, 56, 56, 256)       590080    
_________________________________________________________________
block3_pool (MaxPooling2D)   (None, 28, 28, 256)       0         
_________________________________________________________________
block4_conv1 (Conv2D)        (None, 28, 28, 512)       1180160   
_________________________________________________________________
block4_conv2 (Conv2D)        (None, 28, 28, 512)       2359808   
_________________________________________________________________
block4_conv3 (Conv2D)        (None, 28, 28, 512)       2359808   
_________________________________________________________________
block4_conv4 (Conv2D)        (None, 28, 28, 512)       2359808   
_________________________________________________________________
block4_pool (MaxPooling2D)   (None, 14, 14, 512)       0         
_________________________________________________________________
block5_conv1 (Conv2D)        (None, 14, 14, 512)       2359808   
_________________________________________________________________
block5_conv2 (Conv2D)        (None, 14, 14, 512)       2359808   
_________________________________________________________________
block5_conv3 (Conv2D)        (None, 14, 14, 512)       2359808   
_________________________________________________________________
block5_conv4 (Conv2D)        (None, 14, 14, 512)       2359808   
_________________________________________________________________
block5_pool (MaxPooling2D)   (None, 7, 7, 512)         0         
_________________________________________________________________
global_average_pooling2d_2 ( (None, 512)               0         
_________________________________________________________________
dropout_2 (Dropout)          (None, 512)               0         
_________________________________________________________________
dense_2 (Dense)              (None, 1)                 513       
=================================================================
Total params: 20,024,897
Trainable params: 513
Non-trainable params: 20,024,384
_________________________________________________________________
Epoch 1/100
 - 8s - loss: 0.6499 - acc: 0.7816 - val_loss: 0.8702 - val_acc: 0.5708

roc_auc: 0.9295 - roc_auc_val: 0.53723 - norm_gini: 0.859 - norm_gini_val: 0.07446          
Epoch 2/100
…
X_trainacc: 0.6753, X_valacc: 0.6037
trainauc: 0.6393, testauc: 0.4177
trainacc: 0.6574, testacc: 0.5847
0.653948535936 0.611111111111 0.540816326531 0.760869565217 0.408080808081 0.395833333333 0.424242424242 0.333333333333
training accuracy: 88/144, 0.611
test accuracy: 19/48, 0.396
__________________________________________________________________________________________________
Layer (type)                    Output Shape         Param #     Connected to                     
==================================================================================================
input_2 (InputLayer)            (None, 224, 224, 3)  0                                            
__________________________________________________________________________________________________
lambda_2 (Lambda)               (None, 224, 224, 3)  0           input_2[0][0]                    
__________________________________________________________________________________________________
conv1_pad (ZeroPadding2D)       (None, 230, 230, 3)  0           lambda_2[0][0]                   
__________________________________________________________________________________________________
conv1 (Conv2D)                  (None, 112, 112, 64) 9472        conv1_pad[0][0]                  
__________________________________________________________________________________________________
bn_conv1 (BatchNormalization)   (None, 112, 112, 64) 256         conv1[0][0]                      
__________________________________________________________________________________________________
activation_50 (Activation)      (None, 112, 112, 64) 0           bn_conv1[0][0]                   
__________________________________________________________________________________________________
pool1_pad (ZeroPadding2D)       (None, 114, 114, 64) 0           activation_50[0][0]              
__________________________________________________________________________________________________
max_pooling2d_2 (MaxPooling2D)  (None, 56, 56, 64)   0           pool1_pad[0][0]                  
__________________________________________________________________________________________________
res2a_branch2a (Conv2D)         (None, 56, 56, 64)   4160        max_pooling2d_2[0][0]            
__________________________________________________________________________________________________
bn2a_branch2a (BatchNormalizati (None, 56, 56, 64)   256         res2a_branch2a[0][0]             
__________________________________________________________________________________________________
activation_51 (Activation)      (None, 56, 56, 64)   0           bn2a_branch2a[0][0]              
__________________________________________________________________________________________________
res2a_branch2b (Conv2D)         (None, 56, 56, 64)   36928       activation_51[0][0]              
__________________________________________________________________________________________________
bn2a_branch2b (BatchNormalizati (None, 56, 56, 64)   256         res2a_branch2b[0][0]             
__________________________________________________________________________________________________
activation_52 (Activation)      (None, 56, 56, 64)   0           bn2a_branch2b[0][0]              
__________________________________________________________________________________________________
res2a_branch2c (Conv2D)         (None, 56, 56, 256)  16640       activation_52[0][0]              
__________________________________________________________________________________________________
res2a_branch1 (Conv2D)          (None, 56, 56, 256)  16640       max_pooling2d_2[0][0]            
__________________________________________________________________________________________________
bn2a_branch2c (BatchNormalizati (None, 56, 56, 256)  1024        res2a_branch2c[0][0]             
__________________________________________________________________________________________________
bn2a_branch1 (BatchNormalizatio (None, 56, 56, 256)  1024        res2a_branch1[0][0]              
__________________________________________________________________________________________________
add_17 (Add)                    (None, 56, 56, 256)  0           bn2a_branch2c[0][0]              
                                                                 bn2a_branch1[0][0]               
__________________________________________________________________________________________________
activation_53 (Activation)      (None, 56, 56, 256)  0           add_17[0][0]                     
__________________________________________________________________________________________________
res2b_branch2a (Conv2D)         (None, 56, 56, 64)   16448       activation_53[0][0]              
__________________________________________________________________________________________________
bn2b_branch2a (BatchNormalizati (None, 56, 56, 64)   256         res2b_branch2a[0][0]             
__________________________________________________________________________________________________
activation_54 (Activation)      (None, 56, 56, 64)   0           bn2b_branch2a[0][0]              
__________________________________________________________________________________________________
res2b_branch2b (Conv2D)         (None, 56, 56, 64)   36928       activation_54[0][0]              
__________________________________________________________________________________________________
bn2b_branch2b (BatchNormalizati (None, 56, 56, 64)   256         res2b_branch2b[0][0]             
__________________________________________________________________________________________________
activation_55 (Activation)      (None, 56, 56, 64)   0           bn2b_branch2b[0][0]              
__________________________________________________________________________________________________
res2b_branch2c (Conv2D)         (None, 56, 56, 256)  16640       activation_55[0][0]              
__________________________________________________________________________________________________
bn2b_branch2c (BatchNormalizati (None, 56, 56, 256)  1024        res2b_branch2c[0][0]             
__________________________________________________________________________________________________
add_18 (Add)                    (None, 56, 56, 256)  0           bn2b_branch2c[0][0]              
                                                                 activation_53[0][0]              
__________________________________________________________________________________________________
activation_56 (Activation)      (None, 56, 56, 256)  0           add_18[0][0]                     
__________________________________________________________________________________________________
res2c_branch2a (Conv2D)         (None, 56, 56, 64)   16448       activation_56[0][0]              
__________________________________________________________________________________________________
bn2c_branch2a (BatchNormalizati (None, 56, 56, 64)   256         res2c_branch2a[0][0]             
__________________________________________________________________________________________________
activation_57 (Activation)      (None, 56, 56, 64)   0           bn2c_branch2a[0][0]              
__________________________________________________________________________________________________
res2c_branch2b (Conv2D)         (None, 56, 56, 64)   36928       activation_57[0][0]              
__________________________________________________________________________________________________
bn2c_branch2b (BatchNormalizati (None, 56, 56, 64)   256         res2c_branch2b[0][0]             
__________________________________________________________________________________________________
activation_58 (Activation)      (None, 56, 56, 64)   0           bn2c_branch2b[0][0]              
__________________________________________________________________________________________________
res2c_branch2c (Conv2D)         (None, 56, 56, 256)  16640       activation_58[0][0]              
__________________________________________________________________________________________________
bn2c_branch2c (BatchNormalizati (None, 56, 56, 256)  1024        res2c_branch2c[0][0]             
__________________________________________________________________________________________________
add_19 (Add)                    (None, 56, 56, 256)  0           bn2c_branch2c[0][0]              
                                                                 activation_56[0][0]              
__________________________________________________________________________________________________
activation_59 (Activation)      (None, 56, 56, 256)  0           add_19[0][0]                     
__________________________________________________________________________________________________
res3a_branch2a (Conv2D)         (None, 28, 28, 128)  32896       activation_59[0][0]              
__________________________________________________________________________________________________
bn3a_branch2a (BatchNormalizati (None, 28, 28, 128)  512         res3a_branch2a[0][0]             
__________________________________________________________________________________________________
activation_60 (Activation)      (None, 28, 28, 128)  0           bn3a_branch2a[0][0]              
__________________________________________________________________________________________________
res3a_branch2b (Conv2D)         (None, 28, 28, 128)  147584      activation_60[0][0]              
__________________________________________________________________________________________________
bn3a_branch2b (BatchNormalizati (None, 28, 28, 128)  512         res3a_branch2b[0][0]             
__________________________________________________________________________________________________
activation_61 (Activation)      (None, 28, 28, 128)  0           bn3a_branch2b[0][0]              
__________________________________________________________________________________________________
res3a_branch2c (Conv2D)         (None, 28, 28, 512)  66048       activation_61[0][0]              
__________________________________________________________________________________________________
res3a_branch1 (Conv2D)          (None, 28, 28, 512)  131584      activation_59[0][0]              
__________________________________________________________________________________________________
bn3a_branch2c (BatchNormalizati (None, 28, 28, 512)  2048        res3a_branch2c[0][0]             
__________________________________________________________________________________________________
bn3a_branch1 (BatchNormalizatio (None, 28, 28, 512)  2048        res3a_branch1[0][0]              
__________________________________________________________________________________________________
add_20 (Add)                    (None, 28, 28, 512)  0           bn3a_branch2c[0][0]              
                                                                 bn3a_branch1[0][0]               
__________________________________________________________________________________________________
activation_62 (Activation)      (None, 28, 28, 512)  0           add_20[0][0]                     
__________________________________________________________________________________________________
res3b_branch2a (Conv2D)         (None, 28, 28, 128)  65664       activation_62[0][0]              
__________________________________________________________________________________________________
bn3b_branch2a (BatchNormalizati (None, 28, 28, 128)  512         res3b_branch2a[0][0]             
__________________________________________________________________________________________________
activation_63 (Activation)      (None, 28, 28, 128)  0           bn3b_branch2a[0][0]              
__________________________________________________________________________________________________
res3b_branch2b (Conv2D)         (None, 28, 28, 128)  147584      activation_63[0][0]              
__________________________________________________________________________________________________
bn3b_branch2b (BatchNormalizati (None, 28, 28, 128)  512         res3b_branch2b[0][0]             
__________________________________________________________________________________________________
activation_64 (Activation)      (None, 28, 28, 128)  0           bn3b_branch2b[0][0]              
__________________________________________________________________________________________________
res3b_branch2c (Conv2D)         (None, 28, 28, 512)  66048       activation_64[0][0]              
__________________________________________________________________________________________________
bn3b_branch2c (BatchNormalizati (None, 28, 28, 512)  2048        res3b_branch2c[0][0]             
__________________________________________________________________________________________________
add_21 (Add)                    (None, 28, 28, 512)  0           bn3b_branch2c[0][0]              
                                                                 activation_62[0][0]              
__________________________________________________________________________________________________
activation_65 (Activation)      (None, 28, 28, 512)  0           add_21[0][0]                     
__________________________________________________________________________________________________
res3c_branch2a (Conv2D)         (None, 28, 28, 128)  65664       activation_65[0][0]              
__________________________________________________________________________________________________
bn3c_branch2a (BatchNormalizati (None, 28, 28, 128)  512         res3c_branch2a[0][0]             
__________________________________________________________________________________________________
activation_66 (Activation)      (None, 28, 28, 128)  0           bn3c_branch2a[0][0]              
__________________________________________________________________________________________________
res3c_branch2b (Conv2D)         (None, 28, 28, 128)  147584      activation_66[0][0]              
__________________________________________________________________________________________________
bn3c_branch2b (BatchNormalizati (None, 28, 28, 128)  512         res3c_branch2b[0][0]             
__________________________________________________________________________________________________
activation_67 (Activation)      (None, 28, 28, 128)  0           bn3c_branch2b[0][0]              
__________________________________________________________________________________________________
res3c_branch2c (Conv2D)         (None, 28, 28, 512)  66048       activation_67[0][0]              
__________________________________________________________________________________________________
bn3c_branch2c (BatchNormalizati (None, 28, 28, 512)  2048        res3c_branch2c[0][0]             
__________________________________________________________________________________________________
add_22 (Add)                    (None, 28, 28, 512)  0           bn3c_branch2c[0][0]              
                                                                 activation_65[0][0]              
__________________________________________________________________________________________________
activation_68 (Activation)      (None, 28, 28, 512)  0           add_22[0][0]                     
__________________________________________________________________________________________________
res3d_branch2a (Conv2D)         (None, 28, 28, 128)  65664       activation_68[0][0]              
__________________________________________________________________________________________________
bn3d_branch2a (BatchNormalizati (None, 28, 28, 128)  512         res3d_branch2a[0][0]             
__________________________________________________________________________________________________
activation_69 (Activation)      (None, 28, 28, 128)  0           bn3d_branch2a[0][0]              
__________________________________________________________________________________________________
res3d_branch2b (Conv2D)         (None, 28, 28, 128)  147584      activation_69[0][0]              
__________________________________________________________________________________________________
bn3d_branch2b (BatchNormalizati (None, 28, 28, 128)  512         res3d_branch2b[0][0]             
__________________________________________________________________________________________________
activation_70 (Activation)      (None, 28, 28, 128)  0           bn3d_branch2b[0][0]              
__________________________________________________________________________________________________
res3d_branch2c (Conv2D)         (None, 28, 28, 512)  66048       activation_70[0][0]              
__________________________________________________________________________________________________
bn3d_branch2c (BatchNormalizati (None, 28, 28, 512)  2048        res3d_branch2c[0][0]             
__________________________________________________________________________________________________
add_23 (Add)                    (None, 28, 28, 512)  0           bn3d_branch2c[0][0]              
                                                                 activation_68[0][0]              
__________________________________________________________________________________________________
activation_71 (Activation)      (None, 28, 28, 512)  0           add_23[0][0]                     
__________________________________________________________________________________________________
res4a_branch2a (Conv2D)         (None, 14, 14, 256)  131328      activation_71[0][0]              
__________________________________________________________________________________________________
bn4a_branch2a (BatchNormalizati (None, 14, 14, 256)  1024        res4a_branch2a[0][0]             
__________________________________________________________________________________________________
activation_72 (Activation)      (None, 14, 14, 256)  0           bn4a_branch2a[0][0]              
__________________________________________________________________________________________________
res4a_branch2b (Conv2D)         (None, 14, 14, 256)  590080      activation_72[0][0]              
__________________________________________________________________________________________________
bn4a_branch2b (BatchNormalizati (None, 14, 14, 256)  1024        res4a_branch2b[0][0]             
__________________________________________________________________________________________________
activation_73 (Activation)      (None, 14, 14, 256)  0           bn4a_branch2b[0][0]              
__________________________________________________________________________________________________
res4a_branch2c (Conv2D)         (None, 14, 14, 1024) 263168      activation_73[0][0]              
__________________________________________________________________________________________________
res4a_branch1 (Conv2D)          (None, 14, 14, 1024) 525312      activation_71[0][0]              
__________________________________________________________________________________________________
bn4a_branch2c (BatchNormalizati (None, 14, 14, 1024) 4096        res4a_branch2c[0][0]             
__________________________________________________________________________________________________
bn4a_branch1 (BatchNormalizatio (None, 14, 14, 1024) 4096        res4a_branch1[0][0]              
__________________________________________________________________________________________________
add_24 (Add)                    (None, 14, 14, 1024) 0           bn4a_branch2c[0][0]              
                                                                 bn4a_branch1[0][0]               
__________________________________________________________________________________________________
activation_74 (Activation)      (None, 14, 14, 1024) 0           add_24[0][0]                     
__________________________________________________________________________________________________
res4b_branch2a (Conv2D)         (None, 14, 14, 256)  262400      activation_74[0][0]              
__________________________________________________________________________________________________
bn4b_branch2a (BatchNormalizati (None, 14, 14, 256)  1024        res4b_branch2a[0][0]             
__________________________________________________________________________________________________
activation_75 (Activation)      (None, 14, 14, 256)  0           bn4b_branch2a[0][0]              
__________________________________________________________________________________________________
res4b_branch2b (Conv2D)         (None, 14, 14, 256)  590080      activation_75[0][0]              
__________________________________________________________________________________________________
bn4b_branch2b (BatchNormalizati (None, 14, 14, 256)  1024        res4b_branch2b[0][0]             
__________________________________________________________________________________________________
activation_76 (Activation)      (None, 14, 14, 256)  0           bn4b_branch2b[0][0]              
__________________________________________________________________________________________________
res4b_branch2c (Conv2D)         (None, 14, 14, 1024) 263168      activation_76[0][0]              
__________________________________________________________________________________________________
bn4b_branch2c (BatchNormalizati (None, 14, 14, 1024) 4096        res4b_branch2c[0][0]             
__________________________________________________________________________________________________
add_25 (Add)                    (None, 14, 14, 1024) 0           bn4b_branch2c[0][0]              
                                                                 activation_74[0][0]              
__________________________________________________________________________________________________
activation_77 (Activation)      (None, 14, 14, 1024) 0           add_25[0][0]                     
__________________________________________________________________________________________________
res4c_branch2a (Conv2D)         (None, 14, 14, 256)  262400      activation_77[0][0]              
__________________________________________________________________________________________________
bn4c_branch2a (BatchNormalizati (None, 14, 14, 256)  1024        res4c_branch2a[0][0]             
__________________________________________________________________________________________________
activation_78 (Activation)      (None, 14, 14, 256)  0           bn4c_branch2a[0][0]              
__________________________________________________________________________________________________
res4c_branch2b (Conv2D)         (None, 14, 14, 256)  590080      activation_78[0][0]              
__________________________________________________________________________________________________
bn4c_branch2b (BatchNormalizati (None, 14, 14, 256)  1024        res4c_branch2b[0][0]             
__________________________________________________________________________________________________
activation_79 (Activation)      (None, 14, 14, 256)  0           bn4c_branch2b[0][0]              
__________________________________________________________________________________________________
res4c_branch2c (Conv2D)         (None, 14, 14, 1024) 263168      activation_79[0][0]              
__________________________________________________________________________________________________
bn4c_branch2c (BatchNormalizati (None, 14, 14, 1024) 4096        res4c_branch2c[0][0]             
__________________________________________________________________________________________________
add_26 (Add)                    (None, 14, 14, 1024) 0           bn4c_branch2c[0][0]              
                                                                 activation_77[0][0]              
__________________________________________________________________________________________________
activation_80 (Activation)      (None, 14, 14, 1024) 0           add_26[0][0]                     
__________________________________________________________________________________________________
res4d_branch2a (Conv2D)         (None, 14, 14, 256)  262400      activation_80[0][0]              
__________________________________________________________________________________________________
bn4d_branch2a (BatchNormalizati (None, 14, 14, 256)  1024        res4d_branch2a[0][0]             
__________________________________________________________________________________________________
activation_81 (Activation)      (None, 14, 14, 256)  0           bn4d_branch2a[0][0]              
__________________________________________________________________________________________________
res4d_branch2b (Conv2D)         (None, 14, 14, 256)  590080      activation_81[0][0]              
__________________________________________________________________________________________________
bn4d_branch2b (BatchNormalizati (None, 14, 14, 256)  1024        res4d_branch2b[0][0]             
__________________________________________________________________________________________________
activation_82 (Activation)      (None, 14, 14, 256)  0           bn4d_branch2b[0][0]              
__________________________________________________________________________________________________
res4d_branch2c (Conv2D)         (None, 14, 14, 1024) 263168      activation_82[0][0]              
__________________________________________________________________________________________________
bn4d_branch2c (BatchNormalizati (None, 14, 14, 1024) 4096        res4d_branch2c[0][0]             
__________________________________________________________________________________________________
add_27 (Add)                    (None, 14, 14, 1024) 0           bn4d_branch2c[0][0]              
                                                                 activation_80[0][0]              
__________________________________________________________________________________________________
activation_83 (Activation)      (None, 14, 14, 1024) 0           add_27[0][0]                     
__________________________________________________________________________________________________
res4e_branch2a (Conv2D)         (None, 14, 14, 256)  262400      activation_83[0][0]              
__________________________________________________________________________________________________
bn4e_branch2a (BatchNormalizati (None, 14, 14, 256)  1024        res4e_branch2a[0][0]             
__________________________________________________________________________________________________
activation_84 (Activation)      (None, 14, 14, 256)  0           bn4e_branch2a[0][0]              
__________________________________________________________________________________________________
res4e_branch2b (Conv2D)         (None, 14, 14, 256)  590080      activation_84[0][0]              
__________________________________________________________________________________________________
bn4e_branch2b (BatchNormalizati (None, 14, 14, 256)  1024        res4e_branch2b[0][0]             
__________________________________________________________________________________________________
activation_85 (Activation)      (None, 14, 14, 256)  0           bn4e_branch2b[0][0]              
__________________________________________________________________________________________________
res4e_branch2c (Conv2D)         (None, 14, 14, 1024) 263168      activation_85[0][0]              
__________________________________________________________________________________________________
bn4e_branch2c (BatchNormalizati (None, 14, 14, 1024) 4096        res4e_branch2c[0][0]             
__________________________________________________________________________________________________
add_28 (Add)                    (None, 14, 14, 1024) 0           bn4e_branch2c[0][0]              
                                                                 activation_83[0][0]              
__________________________________________________________________________________________________
activation_86 (Activation)      (None, 14, 14, 1024) 0           add_28[0][0]                     
__________________________________________________________________________________________________
res4f_branch2a (Conv2D)         (None, 14, 14, 256)  262400      activation_86[0][0]              
__________________________________________________________________________________________________
bn4f_branch2a (BatchNormalizati (None, 14, 14, 256)  1024        res4f_branch2a[0][0]             
__________________________________________________________________________________________________
activation_87 (Activation)      (None, 14, 14, 256)  0           bn4f_branch2a[0][0]              
__________________________________________________________________________________________________
res4f_branch2b (Conv2D)         (None, 14, 14, 256)  590080      activation_87[0][0]              
__________________________________________________________________________________________________
bn4f_branch2b (BatchNormalizati (None, 14, 14, 256)  1024        res4f_branch2b[0][0]             
__________________________________________________________________________________________________
activation_88 (Activation)      (None, 14, 14, 256)  0           bn4f_branch2b[0][0]              
__________________________________________________________________________________________________
res4f_branch2c (Conv2D)         (None, 14, 14, 1024) 263168      activation_88[0][0]              
__________________________________________________________________________________________________
bn4f_branch2c (BatchNormalizati (None, 14, 14, 1024) 4096        res4f_branch2c[0][0]             
__________________________________________________________________________________________________
add_29 (Add)                    (None, 14, 14, 1024) 0           bn4f_branch2c[0][0]              
                                                                 activation_86[0][0]              
__________________________________________________________________________________________________
activation_89 (Activation)      (None, 14, 14, 1024) 0           add_29[0][0]                     
__________________________________________________________________________________________________
res5a_branch2a (Conv2D)         (None, 7, 7, 512)    524800      activation_89[0][0]              
__________________________________________________________________________________________________
bn5a_branch2a (BatchNormalizati (None, 7, 7, 512)    2048        res5a_branch2a[0][0]             
__________________________________________________________________________________________________
activation_90 (Activation)      (None, 7, 7, 512)    0           bn5a_branch2a[0][0]              
__________________________________________________________________________________________________
res5a_branch2b (Conv2D)         (None, 7, 7, 512)    2359808     activation_90[0][0]              
__________________________________________________________________________________________________
bn5a_branch2b (BatchNormalizati (None, 7, 7, 512)    2048        res5a_branch2b[0][0]             
__________________________________________________________________________________________________
activation_91 (Activation)      (None, 7, 7, 512)    0           bn5a_branch2b[0][0]              
__________________________________________________________________________________________________
res5a_branch2c (Conv2D)         (None, 7, 7, 2048)   1050624     activation_91[0][0]              
__________________________________________________________________________________________________
res5a_branch1 (Conv2D)          (None, 7, 7, 2048)   2099200     activation_89[0][0]              
__________________________________________________________________________________________________
bn5a_branch2c (BatchNormalizati (None, 7, 7, 2048)   8192        res5a_branch2c[0][0]             
__________________________________________________________________________________________________
bn5a_branch1 (BatchNormalizatio (None, 7, 7, 2048)   8192        res5a_branch1[0][0]              
__________________________________________________________________________________________________
add_30 (Add)                    (None, 7, 7, 2048)   0           bn5a_branch2c[0][0]              
                                                                 bn5a_branch1[0][0]               
__________________________________________________________________________________________________
activation_92 (Activation)      (None, 7, 7, 2048)   0           add_30[0][0]                     
__________________________________________________________________________________________________
res5b_branch2a (Conv2D)         (None, 7, 7, 512)    1049088     activation_92[0][0]              
__________________________________________________________________________________________________
bn5b_branch2a (BatchNormalizati (None, 7, 7, 512)    2048        res5b_branch2a[0][0]             
__________________________________________________________________________________________________
activation_93 (Activation)      (None, 7, 7, 512)    0           bn5b_branch2a[0][0]              
__________________________________________________________________________________________________
res5b_branch2b (Conv2D)         (None, 7, 7, 512)    2359808     activation_93[0][0]              
__________________________________________________________________________________________________
bn5b_branch2b (BatchNormalizati (None, 7, 7, 512)    2048        res5b_branch2b[0][0]             
__________________________________________________________________________________________________
activation_94 (Activation)      (None, 7, 7, 512)    0           bn5b_branch2b[0][0]              
__________________________________________________________________________________________________
res5b_branch2c (Conv2D)         (None, 7, 7, 2048)   1050624     activation_94[0][0]              
__________________________________________________________________________________________________
bn5b_branch2c (BatchNormalizati (None, 7, 7, 2048)   8192        res5b_branch2c[0][0]             
__________________________________________________________________________________________________
add_31 (Add)                    (None, 7, 7, 2048)   0           bn5b_branch2c[0][0]              
                                                                 activation_92[0][0]              
__________________________________________________________________________________________________
activation_95 (Activation)      (None, 7, 7, 2048)   0           add_31[0][0]                     
__________________________________________________________________________________________________
res5c_branch2a (Conv2D)         (None, 7, 7, 512)    1049088     activation_95[0][0]              
__________________________________________________________________________________________________
bn5c_branch2a (BatchNormalizati (None, 7, 7, 512)    2048        res5c_branch2a[0][0]             
__________________________________________________________________________________________________
activation_96 (Activation)      (None, 7, 7, 512)    0           bn5c_branch2a[0][0]              
__________________________________________________________________________________________________
res5c_branch2b (Conv2D)         (None, 7, 7, 512)    2359808     activation_96[0][0]              
__________________________________________________________________________________________________
bn5c_branch2b (BatchNormalizati (None, 7, 7, 512)    2048        res5c_branch2b[0][0]             
__________________________________________________________________________________________________
activation_97 (Activation)      (None, 7, 7, 512)    0           bn5c_branch2b[0][0]              
__________________________________________________________________________________________________
res5c_branch2c (Conv2D)         (None, 7, 7, 2048)   1050624     activation_97[0][0]              
__________________________________________________________________________________________________
bn5c_branch2c (BatchNormalizati (None, 7, 7, 2048)   8192        res5c_branch2c[0][0]             
__________________________________________________________________________________________________
add_32 (Add)                    (None, 7, 7, 2048)   0           bn5c_branch2c[0][0]              
                                                                 activation_95[0][0]              
__________________________________________________________________________________________________
activation_98 (Activation)      (None, 7, 7, 2048)   0           add_32[0][0]                     
__________________________________________________________________________________________________
global_average_pooling2d_2 (Glo (None, 2048)         0           activation_98[0][0]              
__________________________________________________________________________________________________
dropout_2 (Dropout)             (None, 2048)         0           global_average_pooling2d_2[0][0] 
__________________________________________________________________________________________________
dense_2 (Dense)                 (None, 1)            2049        dropout_2[0][0]                  
==================================================================================================
Total params: 23,589,761
Trainable params: 2,049
Non-trainable params: 23,587,712
__________________________________________________________________________________________________
Epoch 1/100
 - 16s - loss: 1.0251 - acc: 0.5356 - val_loss: 0.7328 - val_acc: 0.6667
…
